…
self", ".", "td", ")", "\n", "\n", "self", ".", "tu", "=", "nn", ".", "ModuleList", "(", "self", ".", "tu", ")", "\n", "self", ".", "seg_outputs", "=", "nn", ".", "ModuleList", "(", "self", ".", "seg_outputs", ")", "\n", "# print('self.td is:', self.td)", "\n", "# print('self.tu is:', self.tu)", "\n", "# print('self.seg_outputs is:',self.seg_outputs)", "\n", "# print('self.seg_outputs[-1] is:', self.seg_outputs[-1])", "\n", "# print('self.convolutional_upsampling is:',self.convolutional_upsampling)", "\n", "\"\"\"\n        self.td is: ModuleList()\n        self.tu is: ModuleList(\n          (0): ConvTranspose3d(320, 320, kernel_size=[2, 2, 2], stride=[2, 2, 2], bias=False)\n          (1): ConvTranspose3d(320, 240, kernel_size=[2, 2, 2], stride=[2, 2, 2], bias=False)\n          (2): ConvTranspose3d(240, 120, kernel_size=[2, 2, 2], stride=[2, 2, 2], bias=False)\n          (3): ConvTranspose3d(120, 60, kernel_size=[2, 2, 1], stride=[2, 2, 1], bias=False)\n          (4): ConvTranspose3d(60, 30, kernel_size=[2, 2, 1], stride=[2, 2, 1], bias=False)\n        )\n        self.seg_outputs is: ModuleList(\n          (0): Conv3d(320, 3, kernel_size=(1, 1, 1), stride=(1, 1, 1), bias=False)\n          (1): Conv3d(240, 3, kernel_size=(1, 1, 1), stride=(1, 1, 1), bias=False)\n          (2): Conv3d(120, 3, kernel_size=(1, 1, 1), stride=(1, 1, 1), bias=False)\n          (3): Conv3d(60, 3, kernel_size=(1, 1, 1), stride=(1, 1, 1), bias=False)\n          (4): Conv3d(30, 3, kernel_size=(1, 1, 1), stride=(1, 1, 1), bias=False)\n        )\n        self.seg_outputs[-1] is: Conv3d(30, 3, kernel_size=(1, 1, 1), stride=(1, 1, 1), bias=False)\n        self.convolutional_upsampling is: True\n        \n        \"\"\"", "\n", "\n", "if", "self", ".", "upscale_logits", ":", "\n", "            ", "self", ".", "upscale_logits_ops", "=", "nn", ".", "ModuleList", "(", "self"
…
